…
#   4                   2  766cc549  2024-11-26_22-33-54          0.418154   

#   

#      time_total_s  ...  config/input_size config/learning_rate  \

#   0      1.742914  ...                 24             0.000583   

#   1      1.767644  ...                 24             0.000222   

#   2      2.623766  ...                 24             0.009816   

#   3      2.656381  ...                 24             0.012083   

#   4      1.465539  ...                 24             0.000040   

#   

#     config/n_pool_kernel_size  config/n_freq_downsample  config/val_check_steps  \

#   0                (16, 8, 1)                 (1, 1, 1)                      50   

#   1                (16, 8, 1)              (168, 24, 1)                      50   

#   2                (16, 8, 1)               (24, 12, 1)                      50   

#   3                (16, 8, 1)               (24, 12, 1)                      50   

#   4                 (2, 2, 2)                 (1, 1, 1)                      50   

#   

#      config/random_seed  config/h  config/loss config/valid_loss    logdir  

#   0                   9        12        MAE()             MAE()  e684ab59  

#   1                   5        12        MAE()             MAE()  28016d96  

#   2                   5        12        MAE()             MAE()  ded66a42  

#   3                   7        12        MAE()             MAE()  2964d41f  
…
#   3 0 days 00:00:01.536597              0.015727              [24, 12, 1]   

#   4 0 days 00:00:01.989093              0.001223             [168, 24, 1]   

#   5 0 days 00:00:01.329207              0.002955             [168, 24, 1]   

#   6 0 days 00:00:01.367214              0.006173             [168, 24, 1]   

#   7 0 days 00:00:01.426543              0.000285             [168, 24, 1]   

#   8 0 days 00:00:01.373560              0.004097             [168, 24, 1]   

#   9 0 days 00:00:01.355219              0.000036                [1, 1, 1]   

#   

#     params_n_pool_kernel_size  params_random_seed  \

#   0                 [2, 2, 2]                   5   

#   1                 [2, 2, 2]                  10   

#   2                 [2, 2, 2]                  10   

#   3                [16, 8, 1]                  10   

#   4                 [2, 2, 2]                   1   

#   5                [16, 8, 1]                   5   

#   6                [16, 8, 1]                   4   

#   7                 [2, 2, 2]                   2   

#   8                [16, 8, 1]                   7   

#   9                [16, 8, 1]                   1   

#   

#                                     user_attrs_METRICS     state  

#   0  {'loss': tensor(18.2757), 'train_loss': tensor...  COMPLETE  

#   1  {'loss': tensor(9055198.), 'train_loss': tenso...  COMPLETE  

#   2  {'loss': tensor(55.5430), 'train_loss': tensor...  COMPLETE  

#   3  {'loss': tensor(98.5775), 'train_loss': tensor...  COMPLETE  

#   4  {'loss': tensor(19.6684), 'train_loss': tensor...  COMPLETE  
…
