…
    if y_range is not None: layers.append(SigmoidRange(*y_range))
    return nn.Sequential(*layers)

pool_plus_head = create_pool_plus_head

bs = 16
nf = 12
c_out = 2
seq_len = 20
t = torch.rand(bs, nf, seq_len)
test_eq(create_pool_plus_head(nf, c_out, seq_len, fc_dropout=0.5)(t).shape, (bs, c_out))
test_eq(create_pool_plus_head(nf, c_out, concat_pool=True, fc_dropout=0.5)(t).shape, (bs, c_out))
create_pool_plus_head(nf, c_out, seq_len, fc_dropout=0.5)
# Output:
#   Sequential(

#     (0): AdaptiveConcatPool1d(

#       (ap): AdaptiveAvgPool1d(output_size=1)

#       (mp): AdaptiveMaxPool1d(output_size=1)

#     )

#     (1): Reshape(bs)

#     (2): BatchNorm1d(24, eps=1e-05, momentum=0.1, affine=True, track_running_stats=True)

#     (3): Dropout(p=0.25, inplace=False)

#     (4): Linear(in_features=24, out_features=512, bias=False)

#     (5): ReLU(inplace=True)

#     (6): BatchNorm1d(512, eps=1e-05, momentum=0.1, affine=True, track_running_stats=True)

#     (7): Dropout(p=0.5, inplace=False)

#     (8): Linear(in_features=512, out_features=2, bias=False)

#   )

#|export
def create_conv_head(*args, adaptive_size=None, y_range=None):
    nf = args[0]
    c_out = args[1]
    layers = [nn.AdaptiveAvgPool1d(adaptive_size)] if adaptive_size is not None else []
    for i in range(2):
        if nf > 1:
            layers += [ConvBlock(nf, nf // 2, 1)]
            nf = nf//2
        else: break
    layers += [ConvBlock(nf, c_out, 1), GAP1d(1)]
    if y_range: layers += [SigmoidRange(*y_range)]
    return nn.Sequential(*layers)

conv_head = create_conv_head

bs = 16
nf = 12
c_out = 2
seq_len = 20
t = torch.rand(bs, nf, seq_len)
test_eq(create_conv_head(nf, c_out, seq_len)(t).shape, (bs, c_out))
test_eq(create_conv_head(nf, c_out, adaptive_size=50)(t).shape, (bs, c_out))
create_conv_head(nf, c_out, 50)
# Output:
#   Sequential(

#     (0): ConvBlock(

#       (0): Conv1d(12, 6, kernel_size=(1,), stride=(1,), bias=False)

#       (1): BatchNorm1d(6, eps=1e-05, momentum=0.1, affine=True, track_running_stats=True)

#       (2): ReLU()

#     )

#     (1): ConvBlock(

#       (0): Conv1d(6, 3, kernel_size=(1,), stride=(1,), bias=False)

#       (1): BatchNorm1d(3, eps=1e-05, momentum=0.1, affine=True, track_running_stats=True)

#       (2): ReLU()

#     )

#     (2): ConvBlock(

#       (0): Conv1d(3, 2, kernel_size=(1,), stride=(1,), bias=False)

#       (1): BatchNorm1d(2, eps=1e-05, momentum=0.1, affine=True, track_running_stats=True)

#       (2): ReLU()

#     )

#     (3): GAP1d(

#       (gap): AdaptiveAvgPool1d(output_size=1)

#       (flatten): Reshape(bs)

#     )

#   )

#|export
def create_mlp_head(nf, c_out, seq_len=None, flatten=True, fc_dropout=0., bn=False, lin_first=False, y_range=None):
    if flatten: nf *= seq_len
    layers = [Reshape()] if flatten else []
…
        super().__init__(*layers)

conv_lin_nd_head = create_conv_lin_nd_head
conv_lin_3d_head = create_conv_lin_nd_head # included for compatibility
create_conv_lin_3d_head = create_conv_lin_nd_head # included for compatibility

bs = 16
nf = 32
c = 5
seq_len = 10
d = 2
targ = torch.randint(0, c, (bs,d))
t = torch.randn(bs, nf, seq_len)
head = conv_lin_nd_head(nf, c, seq_len, d, conv_first=True, fc_dropout=.5)
inp = head(t)
test_eq(inp.shape, (bs, d, c))
loss = CrossEntropyLossFlat()(inp, targ)
loss, head
# Output:
#   (TensorBase(1.7252, grad_fn=<AliasBackward0>),

#    create_conv_lin_nd_head(

#      (0): Conv1d(32, 5, kernel_size=(1,), stride=(1,))

#      (1): Dropout(p=0.5, inplace=False)

#      (2): Linear(in_features=10, out_features=2, bias=True)

#      (3): Transpose(dims=-1, -2).contiguous()

#      (4): Reshape(bs, 2, 5)

#    ))

bs = 16
nf = 32
c = 5
seq_len = 10
d = [2, 8]
targ = torch.randint(0, c, [bs]+d)
t = torch.randn(bs, nf, seq_len)
head = conv_lin_nd_head(nf, c, seq_len, d, conv_first=False, fc_dropout=.5)
inp = head(t)
test_eq(inp.shape, [bs]+d+[c])
loss = CrossEntropyLossFlat()(inp, targ)
loss, head
# Output:
#   (TensorBase(1.6647, grad_fn=<AliasBackward0>),

#    create_conv_lin_nd_head(

#      (0): Dropout(p=0.5, inplace=False)

#      (1): Linear(in_features=10, out_features=16, bias=True)

#      (2): Conv1d(32, 5, kernel_size=(1,), stride=(1,))

#      (3): Transpose(dims=-1, -2).contiguous()

#      (4): Reshape(bs, 2, 8, 5)

#    ))

bs = 16
nf = 32
c = 1
seq_len = 10
d = 2
targ = torch.rand(bs, d)
t = torch.randn(bs, nf, seq_len)
head = conv_lin_nd_head(nf, c, seq_len, d, conv_first=False, fc_dropout=.5)
inp = head(t)
test_eq(inp.shape, (bs, d))
loss = L1LossFlat()(inp, targ)
loss, head
# Output:
#   (TensorBase(0.7063, grad_fn=<AliasBackward0>),

#    create_conv_lin_nd_head(

#      (0): Dropout(p=0.5, inplace=False)

#      (1): Linear(in_features=10, out_features=2, bias=True)

#      (2): Conv1d(32, 1, kernel_size=(1,), stride=(1,))

#      (3): Transpose(dims=-1, -2).contiguous()

#      (4): Reshape(bs, 2)

#    ))

bs = 16
nf = 32
c = 1
seq_len = 10
d = [2,3]
targ = torch.rand(bs, *d)
t = torch.randn(bs, nf, seq_len)
head = conv_lin_nd_head(nf, c, seq_len, d, conv_first=False, fc_dropout=.5)
inp = head(t)
test_eq(inp.shape, [bs]+d)
loss = L1LossFlat()(inp, targ)
loss, head
# Output:
#   (TensorBase(0.6203, grad_fn=<AliasBackward0>),

#    create_conv_lin_nd_head(

#      (0): Dropout(p=0.5, inplace=False)

#      (1): Linear(in_features=10, out_features=6, bias=True)

#      (2): Conv1d(32, 1, kernel_size=(1,), stride=(1,))

#      (3): Transpose(dims=-1, -2).contiguous()

#      (4): Reshape(bs, 2, 3)

#    ))

#|export
class lin_nd_head(nn.Sequential):
    "Module to create a nd output head with linear layers"

    def __init__(self, n_in, n_out, seq_len=None, d=None, flatten=False, use_bn=False, fc_dropout=0.):

        if seq_len is None:
            seq_len = 1
        if d is None:
…
test_eq(check_weight(InceptionTimePlus(2,3), is_bn)[0], np.array([1., 1., 1., 1., 1., 1., 1., 1.]))

for i in range(10): InceptionTimePlus(n_vars,c_out,stoch_depth=0.8,depth=9,zero_norm=True)(xb)

net = InceptionTimePlus(2,3,**{'coord': True, 'separable': True, 'zero_norm': True})
test_eq(check_weight(net, is_bn)[0], np.array([1., 1., 0., 1., 1., 0., 1., 1.]))
net
# Output:
#   InceptionTimePlus(

#     (backbone): Sequential(

#       (0): InceptionBlockPlus(

#         (inception): ModuleList(

#           (0): InceptionModulePlus(

#             (bottleneck): ConvBlock(

#               (0): AddCoords1d()

#               (1): Conv1d(3, 32, kernel_size=(1,), stride=(1,), bias=False)

#             )

#             (convs): ModuleList(

#               (0): ConvBlock(

#                 (0): AddCoords1d()

#                 (1): SeparableConv1d(

#                   (depthwise_conv): Conv1d(33, 33, kernel_size=(39,), stride=(1,), padding=(19,), groups=33, bias=False)

#                   (pointwise_conv): Conv1d(33, 32, kernel_size=(1,), stride=(1,), bias=False)

#                 )

#               )

#               (1): ConvBlock(

#                 (0): AddCoords1d()

#                 (1): SeparableConv1d(

#                   (depthwise_conv): Conv1d(33, 33, kernel_size=(19,), stride=(1,), padding=(9,), groups=33, bias=False)

#                   (pointwise_conv): Conv1d(33, 32, kernel_size=(1,), stride=(1,), bias=False)

#                 )

#               )

#               (2): ConvBlock(

#                 (0): AddCoords1d()

#                 (1): SeparableConv1d(

#                   (depthwise_conv): Conv1d(33, 33, kernel_size=(9,), stride=(1,), padding=(4,), groups=33, bias=False)

#                   (pointwise_conv): Conv1d(33, 32, kernel_size=(1,), stride=(1,), bias=False)

#                 )

#               )

#             )

#             (mp_conv): Sequential(

#               (0): MaxPool1d(kernel_size=3, stride=1, padding=1, dilation=1, ceil_mode=False)

#               (1): ConvBlock(

#                 (0): AddCoords1d()

#                 (1): Conv1d(3, 32, kernel_size=(1,), stride=(1,), bias=False)

#               )

#             )

#             (concat): Concat(dim=1)

#             (norm): BatchNorm1d(128, eps=1e-05, momentum=0.1, affine=True, track_running_stats=True)

#             (act): ReLU()

#           )

#           (1): InceptionModulePlus(

#             (bottleneck): ConvBlock(

#               (0): AddCoords1d()

#               (1): Conv1d(129, 32, kernel_size=(1,), stride=(1,), bias=False)

#             )

#             (convs): ModuleList(

#               (0): ConvBlock(

#                 (0): AddCoords1d()

#                 (1): SeparableConv1d(

#                   (depthwise_conv): Conv1d(33, 33, kernel_size=(39,), stride=(1,), padding=(19,), groups=33, bias=False)

#                   (pointwise_conv): Conv1d(33, 32, kernel_size=(1,), stride=(1,), bias=False)

#                 )

#               )

#               (1): ConvBlock(

#                 (0): AddCoords1d()

#                 (1): SeparableConv1d(

#                   (depthwise_conv): Conv1d(33, 33, kernel_size=(19,), stride=(1,), padding=(9,), groups=33, bias=False)

#                   (pointwise_conv): Conv1d(33, 32, kernel_size=(1,), stride=(1,), bias=False)

#                 )

#               )

#               (2): ConvBlock(

#                 (0): AddCoords1d()

#                 (1): SeparableConv1d(

#                   (depthwise_conv): Conv1d(33, 33, kernel_size=(9,), stride=(1,), padding=(4,), groups=33, bias=False)

#                   (pointwise_conv): Conv1d(33, 32, kernel_size=(1,), stride=(1,), bias=False)

#                 )

#               )

#             )

#             (mp_conv): Sequential(

#               (0): MaxPool1d(kernel_size=3, stride=1, padding=1, dilation=1, ceil_mode=False)

#               (1): ConvBlock(

#                 (0): AddCoords1d()

#                 (1): Conv1d(129, 32, kernel_size=(1,), stride=(1,), bias=False)

#               )

#             )

#             (concat): Concat(dim=1)

#             (norm): BatchNorm1d(128, eps=1e-05, momentum=0.1, affine=True, track_running_stats=True)

#             (act): ReLU()

#           )

#           (2): InceptionModulePlus(

#             (bottleneck): ConvBlock(

#               (0): AddCoords1d()

#               (1): Conv1d(129, 32, kernel_size=(1,), stride=(1,), bias=False)

#             )

#             (convs): ModuleList(

#               (0): ConvBlock(

#                 (0): AddCoords1d()

#                 (1): SeparableConv1d(

#                   (depthwise_conv): Conv1d(33, 33, kernel_size=(39,), stride=(1,), padding=(19,), groups=33, bias=False)

#                   (pointwise_conv): Conv1d(33, 32, kernel_size=(1,), stride=(1,), bias=False)

#                 )

#               )

#               (1): ConvBlock(

#                 (0): AddCoords1d()

#                 (1): SeparableConv1d(

#                   (depthwise_conv): Conv1d(33, 33, kernel_size=(19,), stride=(1,), padding=(9,), groups=33, bias=False)

#                   (pointwise_conv): Conv1d(33, 32, kernel_size=(1,), stride=(1,), bias=False)

#                 )

#               )

#               (2): ConvBlock(

#                 (0): AddCoords1d()

#                 (1): SeparableConv1d(

#                   (depthwise_conv): Conv1d(33, 33, kernel_size=(9,), stride=(1,), padding=(4,), groups=33, bias=False)

#                   (pointwise_conv): Conv1d(33, 32, kernel_size=(1,), stride=(1,), bias=False)

#                 )

#               )

#             )

#             (mp_conv): Sequential(

#               (0): MaxPool1d(kernel_size=3, stride=1, padding=1, dilation=1, ceil_mode=False)

#               (1): ConvBlock(

#                 (0): AddCoords1d()

#                 (1): Conv1d(129, 32, kernel_size=(1,), stride=(1,), bias=False)

#               )

#             )

#             (concat): Concat(dim=1)

#             (norm): BatchNorm1d(128, eps=1e-05, momentum=0.1, affine=True, track_running_stats=True)

#           )

#           (3): InceptionModulePlus(

#             (bottleneck): ConvBlock(

#               (0): AddCoords1d()

#               (1): Conv1d(129, 32, kernel_size=(1,), stride=(1,), bias=False)

#             )

#             (convs): ModuleList(

#               (0): ConvBlock(

#                 (0): AddCoords1d()

#                 (1): SeparableConv1d(

#                   (depthwise_conv): Conv1d(33, 33, kernel_size=(39,), stride=(1,), padding=(19,), groups=33, bias=False)

#                   (pointwise_conv): Conv1d(33, 32, kernel_size=(1,), stride=(1,), bias=False)

#                 )

#               )

#               (1): ConvBlock(

#                 (0): AddCoords1d()

#                 (1): SeparableConv1d(

#                   (depthwise_conv): Conv1d(33, 33, kernel_size=(19,), stride=(1,), padding=(9,), groups=33, bias=False)

#                   (pointwise_conv): Conv1d(33, 32, kernel_size=(1,), stride=(1,), bias=False)

#                 )

#               )

#               (2): ConvBlock(

#                 (0): AddCoords1d()

#                 (1): SeparableConv1d(

#                   (depthwise_conv): Conv1d(33, 33, kernel_size=(9,), stride=(1,), padding=(4,), groups=33, bias=False)

#                   (pointwise_conv): Conv1d(33, 32, kernel_size=(1,), stride=(1,), bias=False)

#                 )

#               )

#             )

#             (mp_conv): Sequential(

#               (0): MaxPool1d(kernel_size=3, stride=1, padding=1, dilation=1, ceil_mode=False)

#               (1): ConvBlock(

#                 (0): AddCoords1d()

#                 (1): Conv1d(129, 32, kernel_size=(1,), stride=(1,), bias=False)

#               )

#             )

#             (concat): Concat(dim=1)

#             (norm): BatchNorm1d(128, eps=1e-05, momentum=0.1, affine=True, track_running_stats=True)

#             (act): ReLU()

#           )

#           (4): InceptionModulePlus(

#             (bottleneck): ConvBlock(

#               (0): AddCoords1d()

#               (1): Conv1d(129, 32, kernel_size=(1,), stride=(1,), bias=False)

#             )

#             (convs): ModuleList(

#               (0): ConvBlock(

#                 (0): AddCoords1d()

#                 (1): SeparableConv1d(

#                   (depthwise_conv): Conv1d(33, 33, kernel_size=(39,), stride=(1,), padding=(19,), groups=33, bias=False)

#                   (pointwise_conv): Conv1d(33, 32, kernel_size=(1,), stride=(1,), bias=False)

#                 )

#               )

#               (1): ConvBlock(

#                 (0): AddCoords1d()

#                 (1): SeparableConv1d(

#                   (depthwise_conv): Conv1d(33, 33, kernel_size=(19,), stride=(1,), padding=(9,), groups=33, bias=False)

#                   (pointwise_conv): Conv1d(33, 32, kernel_size=(1,), stride=(1,), bias=False)

#                 )

#               )

#               (2): ConvBlock(

#                 (0): AddCoords1d()

#                 (1): SeparableConv1d(

#                   (depthwise_conv): Conv1d(33, 33, kernel_size=(9,), stride=(1,), padding=(4,), groups=33, bias=False)

#                   (pointwise_conv): Conv1d(33, 32, kernel_size=(1,), stride=(1,), bias=False)

#                 )

#               )

#             )

#             (mp_conv): Sequential(

#               (0): MaxPool1d(kernel_size=3, stride=1, padding=1, dilation=1, ceil_mode=False)

#               (1): ConvBlock(

#                 (0): AddCoords1d()

#                 (1): Conv1d(129, 32, kernel_size=(1,), stride=(1,), bias=False)

#               )

#             )

#             (concat): Concat(dim=1)

#             (norm): BatchNorm1d(128, eps=1e-05, momentum=0.1, affine=True, track_running_stats=True)

#             (act): ReLU()

#           )

#           (5): InceptionModulePlus(

#             (bottleneck): ConvBlock(

#               (0): AddCoords1d()

#               (1): Conv1d(129, 32, kernel_size=(1,), stride=(1,), bias=False)

#             )

#             (convs): ModuleList(

#               (0): ConvBlock(

#                 (0): AddCoords1d()

#                 (1): SeparableConv1d(

#                   (depthwise_conv): Conv1d(33, 33, kernel_size=(39,), stride=(1,), padding=(19,), groups=33, bias=False)

#                   (pointwise_conv): Conv1d(33, 32, kernel_size=(1,), stride=(1,), bias=False)

#                 )

#               )

#               (1): ConvBlock(

#                 (0): AddCoords1d()

#                 (1): SeparableConv1d(

#                   (depthwise_conv): Conv1d(33, 33, kernel_size=(19,), stride=(1,), padding=(9,), groups=33, bias=False)

#                   (pointwise_conv): Conv1d(33, 32, kernel_size=(1,), stride=(1,), bias=False)

#                 )

#               )

#               (2): ConvBlock(

#                 (0): AddCoords1d()

#                 (1): SeparableConv1d(

#                   (depthwise_conv): Conv1d(33, 33, kernel_size=(9,), stride=(1,), padding=(4,), groups=33, bias=False)

#                   (pointwise_conv): Conv1d(33, 32, kernel_size=(1,), stride=(1,), bias=False)

#                 )

#               )

#             )

#             (mp_conv): Sequential(

#               (0): MaxPool1d(kernel_size=3, stride=1, padding=1, dilation=1, ceil_mode=False)

#               (1): ConvBlock(

#                 (0): AddCoords1d()

#                 (1): Conv1d(129, 32, kernel_size=(1,), stride=(1,), bias=False)

#               )

#             )

#             (concat): Concat(dim=1)

#             (norm): BatchNorm1d(128, eps=1e-05, momentum=0.1, affine=True, track_running_stats=True)

#           )

#         )

#         (shortcut): ModuleList(

#           (0): ConvBlock(

#             (0): AddCoords1d()

#             (1): Conv1d(3, 128, kernel_size=(1,), stride=(1,), bias=False)

#             (2): BatchNorm1d(128, eps=1e-05, momentum=0.1, affine=True, track_running_stats=True)

#           )

#           (1): BatchNorm1d(128, eps=1e-05, momentum=0.1, affine=True, track_running_stats=True)

#         )

#         (act): ModuleList(

#           (0): ReLU()

#           (1): ReLU()

#         )

#         (add): Add

#       )

#     )

#     (head): Sequential(

#       (0): Sequential(

#         (0): GAP1d(

#           (gap): AdaptiveAvgPool1d(output_size=1)

#           (flatten): Reshape(bs)

#         )

#         (1): LinBnDrop(

#           (0): Linear(in_features=128, out_features=3, bias=True)

#         )

#       )

#     )

#   )

#|export
@delegates(InceptionTimePlus.__init__)
class MultiInceptionTimePlus(nn.Sequential):
    """Class that allows you to create a model with multiple branches of InceptionTimePlus."""
    _arch = InceptionTimePlus
    def __init__(self, feat_list, c_out, seq_len=None, nf=32, nb_filters=None, depth=6, stoch_depth=1., 
…
            x = self.add(x, self.shortcut(res))
        return x

xb = torch.rand(16, 3, 10)
test_eq(FCNPlus(3, 2)(xb).shape, [xb.shape[0], 2])
test_eq(FCNPlus(3, 2, coord=True, separable=True, act=Swish, residual=True)(xb).shape, [xb.shape[0], 2])
test_eq(nn.Sequential(*FCNPlus(3, 2).children())(xb).shape, [xb.shape[0], 2])
test_eq(FCNPlus(3, 2, custom_head=partial(mlp_head, seq_len=10))(xb).shape, [xb.shape[0], 2])

from tsai.models.utils import *

model = build_ts_model(FCNPlus, 2, 3)
model[-1]
# Output:
#   Sequential(

#     (0): AdaptiveAvgPool1d(output_size=1)

#     (1): Squeeze(dim=-1)

#     (2): Linear(in_features=128, out_features=3, bias=True)

#   )

from tsai.models.FCN import *

test_eq(count_parameters(FCN(3,2)), count_parameters(FCNPlus(3,2)))

FCNPlus(3,2)
# Output:
#   FCNPlus(

#     (backbone): _FCNBlockPlus(

#       (convblock1): ConvBlock(

#         (0): Conv1d(3, 128, kernel_size=(7,), stride=(1,), padding=(3,), bias=False)

#         (1): BatchNorm1d(128, eps=1e-05, momentum=0.1, affine=True, track_running_stats=True)

#         (2): ReLU()

#       )

#       (convblock2): ConvBlock(

#         (0): Conv1d(128, 256, kernel_size=(5,), stride=(1,), padding=(2,), bias=False)

#         (1): BatchNorm1d(256, eps=1e-05, momentum=0.1, affine=True, track_running_stats=True)

#         (2): ReLU()

#       )

#       (convblock3): ConvBlock(

#         (0): Conv1d(256, 128, kernel_size=(3,), stride=(1,), padding=(1,), bias=False)

#         (1): BatchNorm1d(128, eps=1e-05, momentum=0.1, affine=True, track_running_stats=True)

#         (2): ReLU()

#       )

#       (add): Sequential()

#     )

#     (head): Sequential(

#       (0): AdaptiveAvgPool1d(output_size=1)

#       (1): Squeeze(dim=-1)

#       (2): Linear(in_features=128, out_features=2, bias=True)

#     )

#   )

#|eval: false
#|hide
from tsai.export import get_nb_name; nb_name = get_nb_name(locals())
from tsai.imports import create_scripts; create_scripts(nb_name)
# Output:
#   <IPython.core.display.Javascript object>
#   /Users/nacho/notebooks/tsai/nbs/103c_models.FCNPlus.ipynb saved at 2022-11-21 13:16:09

#   Correct notebook to script conversion! 😃
…
seq_len = 12
c_out = 2
xb = torch.rand(bs, n_vars, seq_len)
test_eq(RNN_FCN(n_vars, c_out, seq_len)(xb).shape, [bs, c_out])
test_eq(LSTM_FCN(n_vars, c_out, seq_len)(xb).shape, [bs, c_out])
test_eq(MLSTM_FCN(n_vars, c_out, seq_len)(xb).shape, [bs, c_out])
test_eq(GRU_FCN(n_vars, c_out, shuffle=False)(xb).shape, [bs, c_out])
test_eq(GRU_FCN(n_vars, c_out, seq_len, shuffle=False)(xb).shape, [bs, c_out])

LSTM_FCN(n_vars, seq_len, c_out, se=8)
# Output:
#   LSTM_FCN(

#     (rnn): LSTM(2, 100, batch_first=True)

#     (rnn_dropout): Dropout(p=0.8, inplace=False)

#     (convblock1): ConvBlock(

#       (0): Conv1d(3, 128, kernel_size=(7,), stride=(1,), padding=(3,), bias=False)

#       (1): BatchNorm1d(128, eps=1e-05, momentum=0.1, affine=True, track_running_stats=True)

#       (2): ReLU()

#     )

#     (se1): SqueezeExciteBlock(

#       (avg_pool): GAP1d(

#         (gap): AdaptiveAvgPool1d(output_size=1)

#         (flatten): Flatten(full=False)

#       )

#       (fc): Sequential(

#         (0): Linear(in_features=128, out_features=16, bias=False)

#         (1): ReLU()

#         (2): Linear(in_features=16, out_features=128, bias=False)

#         (3): Sigmoid()

#       )

#     )

#     (convblock2): ConvBlock(

#       (0): Conv1d(128, 256, kernel_size=(5,), stride=(1,), padding=(2,), bias=False)

#       (1): BatchNorm1d(256, eps=1e-05, momentum=0.1, affine=True, track_running_stats=True)

#       (2): ReLU()

#     )

#     (se2): SqueezeExciteBlock(

#       (avg_pool): GAP1d(

#         (gap): AdaptiveAvgPool1d(output_size=1)

#         (flatten): Flatten(full=False)

#       )

#       (fc): Sequential(

#         (0): Linear(in_features=256, out_features=32, bias=False)

#         (1): ReLU()

#         (2): Linear(in_features=32, out_features=256, bias=False)

#         (3): Sigmoid()

#       )

#     )

#     (convblock3): ConvBlock(

#       (0): Conv1d(256, 128, kernel_size=(3,), stride=(1,), padding=(1,), bias=False)

#       (1): BatchNorm1d(128, eps=1e-05, momentum=0.1, affine=True, track_running_stats=True)

#       (2): ReLU()

#     )

#     (gap): GAP1d(

#       (gap): AdaptiveAvgPool1d(output_size=1)

#       (flatten): Flatten(full=False)

#     )

#     (concat): Concat(dim=1)

#     (fc): Linear(in_features=228, out_features=12, bias=True)

#   )

#|eval: false
#|hide
from tsai.export import get_nb_name; nb_name = get_nb_name(locals())
from tsai.imports import create_scripts; create_scripts(nb_name)
# Output:
#   <IPython.core.display.Javascript object>
#   /Users/nacho/notebooks/tsai/nbs/107_models.RNN_FCN.ipynb saved at 2022-11-09 13:05:09

#   Correct notebook to script conversion! 😃

#   Wednesday 09/11/22 13:05:11 CET
…
model1 = MultiTSTPlus([2, 5], c_out, seq_len, )
model2 = MultiTSTPlus([[0,2,5], [0,1,3,4,6]], c_out, seq_len)
test_eq(model1.to(xb2.device)(xb2).shape, (bs, c_out))
test_eq(model1.to(xb2.device)(xb2).shape, model2.to(xb2.device)(xb2).shape)

model1 = MultiTSTPlus([2, 5], c_out, seq_len, y_range=(0.5, 5.5))
body, head = split_model(model1)
test_eq(body.to(xb2.device)(xb2).ndim, 3)
test_eq(head.to(xb2.device)(body.to(xb2.device)(xb2)).ndim, 2)
head
# Output:
#   Sequential(

#     (0): Sequential(

#       (0): GELU(approximate='none')

#       (1): fastai.layers.Flatten(full=False)

#       (2): LinBnDrop(

#         (0): Linear(in_features=2560, out_features=2, bias=True)

#       )

#     )

#   )

model = MultiTSTPlus([2, 5], c_out, seq_len, pre_norm=True)

bs = 8
n_vars = 3
seq_len = 12
c_out = 2
xb = torch.rand(bs, n_vars, seq_len)
net = MultiTSTPlus(n_vars, c_out, seq_len)
change_model_head(net, create_pool_plus_head, concat_pool=False)
print(net.to(xb.device)(xb).shape)
net.head
# Output:
#   torch.Size([8, 2])

#   Sequential(

#     (0): AdaptiveAvgPool1d(output_size=1)

#     (1): Reshape(bs)

#     (2): BatchNorm1d(128, eps=1e-05, momentum=0.1, affine=True, track_running_stats=True)

#     (3): Linear(in_features=128, out_features=512, bias=False)

#     (4): ReLU(inplace=True)

#     (5): BatchNorm1d(512, eps=1e-05, momentum=0.1, affine=True, track_running_stats=True)

#     (6): Linear(in_features=512, out_features=2, bias=False)

#   )

bs = 8
n_vars = 3
seq_len = 12
c_out = 10
xb = torch.rand(bs, n_vars, seq_len)
new_head = partial(conv_lin_nd_head, d=(5 ,2))
net = MultiTSTPlus(n_vars, c_out, seq_len, custom_head=new_head)
print(net.to(xb.device)(xb).shape)
net.head
# Output:
#   torch.Size([8, 5, 2, 10])

#   Sequential(

#     (0): create_conv_lin_nd_head(

#       (0): Conv1d(128, 10, kernel_size=(1,), stride=(1,))

#       (1): Linear(in_features=12, out_features=10, bias=True)

#       (2): Transpose(-1, -2)

#       (3): Reshape(bs, 5, 2, 10)

#     )

#   )

#|eval: false
#|hide
from tsai.export import get_nb_name; nb_name = get_nb_name(locals())
from tsai.imports import create_scripts; create_scripts(nb_name)
# Output:
#   <IPython.core.display.Javascript object>
#   /Users/nacho/notebooks/tsai/nbs/050_models.TSTPlus.ipynb saved at 2023-03-19 14:21:07
…
model =  XCM(dls.vars, dls.c, dls.len)
learn = ts_learner(dls, model, metrics=accuracy)
xb, yb = dls.one_batch()

bs, c_in, seq_len = xb.shape
c_out = len(np.unique(yb.cpu().numpy()))

model = XCM(c_in, c_out, seq_len, fc_dropout=.5)
test_eq(model.to(xb.device)(xb).shape, (bs, c_out))
model = XCM(c_in, c_out, seq_len, concat_pool=True)
test_eq(model.to(xb.device)(xb).shape, (bs, c_out))
model = XCM(c_in, c_out, seq_len)
test_eq(model.to(xb.device)(xb).shape, (bs, c_out))
model
# Output:
#   XCM(

#     (conv2dblock): Sequential(

#       (0): Unsqueeze(dim=1)

#       (1): Conv2dSame(

#         (conv2d_same): Conv2d(1, 128, kernel_size=(1, 51), stride=(1, 1))

#       )

#       (2): BatchNorm2d(128, eps=1e-05, momentum=0.1, affine=True, track_running_stats=True)

#       (3): ReLU()

#     )

#     (conv2d1x1block): Sequential(

#       (0): Conv2d(128, 1, kernel_size=(1, 1), stride=(1, 1))

#       (1): ReLU()

#       (2): Squeeze(dim=1)

#     )

#     (conv1dblock): Sequential(

#       (0): Conv1d(24, 128, kernel_size=(51,), stride=(1,), padding=(25,))

#       (1): BatchNorm1d(128, eps=1e-05, momentum=0.1, affine=True, track_running_stats=True)

#       (2): ReLU()

#     )

#     (conv1d1x1block): Sequential(

#       (0): Conv1d(128, 1, kernel_size=(1,), stride=(1,))

#       (1): ReLU()

#     )

#     (concat): Concat(dim=1)

#     (conv1d): Sequential(

#       (0): Conv1d(25, 128, kernel_size=(51,), stride=(1,), padding=(25,))

#       (1): BatchNorm1d(128, eps=1e-05, momentum=0.1, affine=True, track_running_stats=True)

#       (2): ReLU()

#     )

#     (head): Sequential(

#       (0): GAP1d(

#         (gap): AdaptiveAvgPool1d(output_size=1)

#         (flatten): Reshape(bs)

#       )

#       (1): LinBnDrop(

#         (0): Linear(in_features=128, out_features=6, bias=True)

#       )

#     )

#   )

model.show_gradcam(xb, yb)
# Output:
#   <Figure size 1000x1000 with 2 Axes>
#   <Figure size 1000x1000 with 2 Axes>

model.show_gradcam(xb[0], yb[0])
# Output:
#   [W NNPACK.cpp:53] Could not initialize NNPACK! Reason: Unsupported hardware.

#   <Figure size 1000x1000 with 2 Axes>
#   <Figure size 1000x1000 with 2 Axes>

bs = 16
n_vars = 3
seq_len = 12
c_out = 10
xb = torch.rand(bs, n_vars, seq_len)
new_head = partial(conv_lin_nd_head, d=(5, 2))
net = XCM(n_vars, c_out, seq_len, custom_head=new_head)
print(net.to(xb.device)(xb).shape)
net.head
# Output:
#   torch.Size([16, 5, 2, 10])

#   create_conv_lin_nd_head(

#     (0): Conv1d(128, 10, kernel_size=(1,), stride=(1,))

#     (1): Linear(in_features=12, out_features=10, bias=True)

#     (2): Transpose(-1, -2)

#     (3): Reshape(bs, 5, 2, 10)

#   )

bs = 16
n_vars = 3
seq_len = 12
c_out = 2
xb = torch.rand(bs, n_vars, seq_len)
net = XCM(n_vars, c_out, seq_len)
change_model_head(net, create_pool_plus_head, concat_pool=False)
print(net.to(xb.device)(xb).shape)
net.head
# Output:
#   torch.Size([16, 2])

#   Sequential(

#     (0): AdaptiveAvgPool1d(output_size=1)

#     (1): Reshape(bs)

#     (2): BatchNorm1d(128, eps=1e-05, momentum=0.1, affine=True, track_running_stats=True)

#     (3): Linear(in_features=128, out_features=512, bias=False)

#     (4): ReLU(inplace=True)

#     (5): BatchNorm1d(512, eps=1e-05, momentum=0.1, affine=True, track_running_stats=True)

#     (6): Linear(in_features=512, out_features=2, bias=False)

#   )

#|eval: false
#|hide
from tsai.export import get_nb_name; nb_name = get_nb_name(locals())
from tsai.imports import create_scripts; create_scripts(nb_name)
# Output:
#   <IPython.core.display.Javascript object>
#   /Users/nacho/notebooks/tsai/nbs/061_models.XCM.ipynb saved at 2023-03-16 12:38:29

#   Correct notebook to script conversion! 😃

#   Thursday 16/03/23 12:38:32 CET
…
